   
('PCs', False, False)
VOCABULARY SIZE: 5113
Model: "model_145"
_________________________________________________________________
Layer (type)                 Output Shape              Param #   
=================================================================
input_133 (InputLayer)       [(None, 3)]               0         
_________________________________________________________________
dense_268 (Dense)            (None, 32)                128       
_________________________________________________________________
dense_269 (Dense)            (None, 16)                528       
_________________________________________________________________
dropout_80 (Dropout)         (None, 16)                0         
_________________________________________________________________
dense_270 (Dense)            (None, 8)                 136       
_________________________________________________________________
dropout_81 (Dropout)         (None, 8)                 0         
_________________________________________________________________
dense_271 (Dense)            (None, 2)                 18        
=================================================================
Total params: 810
Trainable params: 810
Non-trainable params: 0

(False, 'percentChunks', False)
VOCABULARY SIZE: 5113
Model: "model_128"
_________________________________________________________________
Layer (type)                 Output Shape              Param #   
=================================================================
input_121 (InputLayer)       [(None, 10, 48)]          0         
_________________________________________________________________
lstm_36 (LSTM)               (None, 24)                7008      
_________________________________________________________________
dense_244 (Dense)            (None, 2)                 50        
=================================================================
Total params: 7,058
Trainable params: 7,058
Non-trainable params: 0
_________________________________________________________________
None

(False, False, True)
VOCABULARY SIZE: 5113
Model: "model_121"
_________________________________________________________________
Layer (type)                 Output Shape              Param #   
=================================================================
input_117 (InputLayer)       [(None, 25)]              0         
_________________________________________________________________
embedding_32 (Embedding)     (None, 25, 300)           1533900   
_________________________________________________________________
conv1d_88 (Conv1D)           (None, 23, 128)           115328    
_________________________________________________________________
global_max_pooling1d_88 (Glo (None, 128)               0         
_________________________________________________________________
dropout_68 (Dropout)         (None, 128)               0         
_________________________________________________________________
dense_236 (Dense)            (None, 16)                2064      
_________________________________________________________________
dense_237 (Dense)            (None, 2)                 34        
=================================================================
Total params: 1,651,326
Trainable params: 117,426
Non-trainable params: 1,533,900
_________________________________________________________________
None

(False, 'percentChunks', True)
VOCABULARY SIZE: 5113
Model: "model_161"
__________________________________________________________________________________________________
Layer (type)                    Output Shape         Param #     Connected to                     
==================================================================================================
input_141 (InputLayer)          [(None, 25)]         0                                            
__________________________________________________________________________________________________
embedding_36 (Embedding)        (None, 25, 300)      1533900     input_141[0][0]                  
__________________________________________________________________________________________________
conv1d_92 (Conv1D)              (None, 23, 128)      115328      embedding_36[0][0]               
__________________________________________________________________________________________________
conv1d_93 (Conv1D)              (None, 22, 128)      153728      embedding_36[0][0]               
__________________________________________________________________________________________________
conv1d_94 (Conv1D)              (None, 21, 128)      192128      embedding_36[0][0]               
__________________________________________________________________________________________________
global_max_pooling1d_92 (Global (None, 128)          0           conv1d_92[0][0]                  
__________________________________________________________________________________________________
global_max_pooling1d_93 (Global (None, 128)          0           conv1d_93[0][0]                  
__________________________________________________________________________________________________
global_max_pooling1d_94 (Global (None, 128)          0           conv1d_94[0][0]                  
__________________________________________________________________________________________________
input_142 (InputLayer)          [(None, 10, 48)]     0                                            
__________________________________________________________________________________________________
concatenate_68 (Concatenate)    (None, 384)          0           global_max_pooling1d_92[0][0]    
                                                                 global_max_pooling1d_93[0][0]    
                                                                 global_max_pooling1d_94[0][0]    
__________________________________________________________________________________________________
lstm_44 (LSTM)                  (None, 300)          418800      input_142[0][0]                  
__________________________________________________________________________________________________
dense_300 (Dense)               (None, 300)          115500      concatenate_68[0][0]             
__________________________________________________________________________________________________
dense_301 (Dense)               (None, 300)          90300       lstm_44[0][0]                    
__________________________________________________________________________________________________
concatenate_69 (Concatenate)    (None, 600)          0           dense_300[0][0]                  
                                                                 dense_301[0][0]                  
__________________________________________________________________________________________________
dropout_96 (Dropout)            (None, 600)          0           concatenate_69[0][0]             
__________________________________________________________________________________________________
dense_302 (Dense)               (None, 16)           9616        dropout_96[0][0]                 
__________________________________________________________________________________________________
dense_303 (Dense)               (None, 2)            34          dense_302[0][0]                  
==================================================================================================
Total params: 2,629,334
Trainable params: 1,095,434
Non-trainable params: 1,533,900
__________________________________________________________________________________________________
None

('PCs', 'percentChunks', False)
VOCABULARY SIZE: 5113
Model: "model_201"
__________________________________________________________________________________________________
Layer (type)                    Output Shape         Param #     Connected to                     
==================================================================================================
input_181 (InputLayer)          [(None, 10, 48)]     0                                            
__________________________________________________________________________________________________
lstm_52 (LSTM)                  (None, 300)          418800      input_181[0][0]                  
__________________________________________________________________________________________________
input_182 (InputLayer)          [(None, 3)]          0                                            
__________________________________________________________________________________________________
dense_380 (Dense)               (None, 300)          90300       lstm_52[0][0]                    
__________________________________________________________________________________________________
dense_381 (Dense)               (None, 300)          1200        input_182[0][0]                  
__________________________________________________________________________________________________
concatenate_104 (Concatenate)   (None, 600)          0           dense_380[0][0]                  
                                                                 dense_381[0][0]                  
__________________________________________________________________________________________________
dropout_116 (Dropout)           (None, 600)          0           concatenate_104[0][0]            
__________________________________________________________________________________________________
dense_382 (Dense)               (None, 16)           9616        dropout_116[0][0]                
__________________________________________________________________________________________________
dense_383 (Dense)               (None, 2)            34          dense_382[0][0]                  
==================================================================================================
Total params: 519,950
Trainable params: 519,950
Non-trainable params: 0
__________________________________________________________________________________________________
None

('PCs', False, True)
VOCABULARY SIZE: 5113
Model: "model_177"
__________________________________________________________________________________________________
Layer (type)                    Output Shape         Param #     Connected to                     
==================================================================================================
input_157 (InputLayer)          [(None, 25)]         0                                            
__________________________________________________________________________________________________
embedding_44 (Embedding)        (None, 25, 300)      1533900     input_157[0][0]                  
__________________________________________________________________________________________________
conv1d_116 (Conv1D)             (None, 23, 128)      115328      embedding_44[0][0]               
__________________________________________________________________________________________________
conv1d_117 (Conv1D)             (None, 22, 128)      153728      embedding_44[0][0]               
__________________________________________________________________________________________________
conv1d_118 (Conv1D)             (None, 21, 128)      192128      embedding_44[0][0]               
__________________________________________________________________________________________________
global_max_pooling1d_116 (Globa (None, 128)          0           conv1d_116[0][0]                 
__________________________________________________________________________________________________
global_max_pooling1d_117 (Globa (None, 128)          0           conv1d_117[0][0]                 
__________________________________________________________________________________________________
global_max_pooling1d_118 (Globa (None, 128)          0           conv1d_118[0][0]                 
__________________________________________________________________________________________________
concatenate_84 (Concatenate)    (None, 384)          0           global_max_pooling1d_116[0][0]   
                                                                 global_max_pooling1d_117[0][0]   
                                                                 global_max_pooling1d_118[0][0]   
__________________________________________________________________________________________________
input_158 (InputLayer)          [(None, 3)]          0                                            
__________________________________________________________________________________________________
dense_332 (Dense)               (None, 300)          115500      concatenate_84[0][0]             
__________________________________________________________________________________________________
dense_333 (Dense)               (None, 300)          1200        input_158[0][0]                  
__________________________________________________________________________________________________
concatenate_85 (Concatenate)    (None, 600)          0           dense_332[0][0]                  
                                                                 dense_333[0][0]                  
__________________________________________________________________________________________________
dropout_104 (Dropout)           (None, 600)          0           concatenate_85[0][0]             
__________________________________________________________________________________________________
dense_334 (Dense)               (None, 16)           9616        dropout_104[0][0]                
__________________________________________________________________________________________________
dense_335 (Dense)               (None, 2)            34          dense_334[0][0]                  
==================================================================================================
Total params: 2,121,434
Trainable params: 587,534
Non-trainable params: 1,533,900
__________________________________________________________________________________________________
None

('PCs', 'percentChunks', True)
VOCABULARY SIZE: 5113
Model: "model_225"
__________________________________________________________________________________________________
Layer (type)                    Output Shape         Param #     Connected to                     
==================================================================================================
input_209 (InputLayer)          [(None, 25)]         0                                            
__________________________________________________________________________________________________
embedding_56 (Embedding)        (None, 25, 300)      1533900     input_209[0][0]                  
__________________________________________________________________________________________________
conv1d_152 (Conv1D)             (None, 23, 128)      115328      embedding_56[0][0]               
__________________________________________________________________________________________________
conv1d_153 (Conv1D)             (None, 22, 128)      153728      embedding_56[0][0]               
__________________________________________________________________________________________________
conv1d_154 (Conv1D)             (None, 21, 128)      192128      embedding_56[0][0]               
__________________________________________________________________________________________________
global_max_pooling1d_152 (Globa (None, 128)          0           conv1d_152[0][0]                 
__________________________________________________________________________________________________
global_max_pooling1d_153 (Globa (None, 128)          0           conv1d_153[0][0]                 
__________________________________________________________________________________________________
global_max_pooling1d_154 (Globa (None, 128)          0           conv1d_154[0][0]                 
__________________________________________________________________________________________________
input_210 (InputLayer)          [(None, 10, 48)]     0                                            
__________________________________________________________________________________________________
concatenate_120 (Concatenate)   (None, 384)          0           global_max_pooling1d_152[0][0]   
                                                                 global_max_pooling1d_153[0][0]   
                                                                 global_max_pooling1d_154[0][0]   
__________________________________________________________________________________________________
lstm_64 (LSTM)                  (None, 300)          418800      input_210[0][0]                  
__________________________________________________________________________________________________
input_211 (InputLayer)          [(None, 3)]          0                                            
__________________________________________________________________________________________________
dense_432 (Dense)               (None, 300)          115500      concatenate_120[0][0]            
__________________________________________________________________________________________________
dense_433 (Dense)               (None, 300)          90300       lstm_64[0][0]                    
__________________________________________________________________________________________________
dense_434 (Dense)               (None, 300)          1200        input_211[0][0]                  
__________________________________________________________________________________________________
concatenate_121 (Concatenate)   (None, 900)          0           dense_432[0][0]                  
                                                                 dense_433[0][0]                  
                                                                 dense_434[0][0]                  
__________________________________________________________________________________________________
dropout_128 (Dropout)           (None, 900)          0           concatenate_121[0][0]            
__________________________________________________________________________________________________
dense_435 (Dense)               (None, 16)           14416       dropout_128[0][0]                
__________________________________________________________________________________________________
dense_436 (Dense)               (None, 2)            34          dense_435[0][0]                  
==================================================================================================
Total params: 2,635,334
Trainable params: 1,101,434
Non-trainable params: 1,533,900
__________________________________________________________________________________________________
None